myiris.model (torch, 1759 bytes, 4 tensors)

l1.weight f4 [6, 4]
-0.22236322 -1.2461207 1.7050873 1.0380898 -0.2256187 -0.6056734 0.65617883 0.5137536
0.34277746 0.5747513 -0.76753294 -0.7028066 -0.12228569 0.18443981 -0.48325592 0.25969362
0.18910426 0.16387056 0.17170075 -0.08733219 1.2003269 1.548171 -1.9686749 -1.6547638
00000000: 2fb3 63be e280 9fbf 4d40 da3f 20e0 843f
00000010: 9708 67be 690d 1bbf 56fb 273f 5b85 033f
00000020: 8780 af3e e722 133f 0a7d 44bf 22eb 33bf
00000030: eb70 fabd cadd 3c3e 526d f7be 90f6 843e
00000040: 8ca4 413e afcd 273e 52d2 2f3e 38db b2bd
00000050: 50a4 993f 782a c63f 8afd fbbf 4dcf d3bf

l1.bias f4 [6]
-0.606671 -0.17191616 0.3808689 0.33648637 0.12859571 0.15733354
00000000: ca4e 1bbf ca0a 30be 4001 c33e f147 ac3e
00000010: 98ae 033e 0b1c 213e

l2.weight f4 [3, 6]
-3.2835991 -0.6998883 1.1483861 0.705798 -0.3679578 2.5597305 1.443301 -0.39331853
0.5426247 0.12200807 -0.4947191 0.46286282 2.2278001 1.1881955 -0.7813366 0.08483506
0.57440025 -3.8003716
00000000: 7d26 52c0 e12b 33bf 51fe 923f 2daf 343f
00000010: f764 bcbe a0d2 2340 16be b83f 0c61 c9be
00000020: 74e9 0a3f 5edf f93d d24b fdbe 5bfc ec3e
00000030: 4794 0e40 ca16 983f ad05 48bf 01be ad3d
00000040: e50b 133f 4a39 73c0

l2.bias f4 [3]
0.35528997 0.15325972 -0.12426215
00000000: 91e8 b53e 1ef0 1c3e 277d febd
