myiris.model (torch, 1759 bytes, 4 tensors)

l1.weight f4 [6, 4]
0	0xc00102fb	-2.015807
1	0xbf6099f1	-0.87734896
2	0x4022b833	2.5424926
3	0x403d917d	2.962005
4	0x3e956bfb	0.29183945
5	0x3e589e02	0.21154025
6	0xbf5161e3	-0.8178999
7	0xbe32e405	-0.17469795
8	0x3f8a8689	1.0822307
9	0x3fa9cf16	1.3266323
10	0xbfdde079	-1.7334129
11	0xc011ba3d	-2.276992
12	0xbec7ac46	-0.38998622
13	0xbf88fe0b	-1.0702528
14	0x3fb154e2	1.3854029
15	0x3fa83ee1	1.3144189
16	0x3c480aac	0.012209576
17	0xbff4ba06	-1.911927
18	0x4003993f	2.0562284
19	0x3f442822	0.7662374
20	0x3f1bc3fe	0.60845935
21	0x3ebf7cad	0.37399808
22	0x3eaf97b1	0.3429542
23	0x3ec076a2	0.3759051

l1.bias f4 [6]
0	0xc00a8f38	-2.1649914
1	0x3ef89ca1	0.48556998
2	0x3faa7f3e	1.3320081
3	0x3d253951	0.040337864
4	0xbe8623ae	-0.26199096
5	0xbca11307	-0.019662393

l2.weight f4 [3, 6]
0	0xc0119546	-2.274736
1	0x3f5b79e8	0.8573289
2	0x4062d4c4	3.5442362
3	0xc03ffda2	-2.9998555
4	0xc0415f63	-3.021447
5	0x3f04148d	0.5159386
6	0xc00e1ad2	-2.220387
7	0xbecc21f0	-0.39869642
8	0x3f577252	0.84158814
9	0x3f595c0b	0.8490607
10	0x401afb7a	2.421599
11	0x3ec363ee	0.38162178
12	0x40945f0f	4.636604
13	0xbf352fb9	-0.70775944
14	0xc081190d	-4.034308
15	0x3ffd6212	1.9795554
16	0x3f38ec08	0.72235155
17	0xbf572855	-0.84045917

l2.bias f4 [3]
0	0x3f2a5c04	0.66546655
1	0xbed502f8	-0.41603827
2	0xbf870ddd	-1.0551106
